best_fall_detector_cnn.pt (torch, 158502 bytes, 20 tensors)

features.0.weight f4 [32, 9, 5]
000000 6f c0 6e 3e f8 7b 4c 3e a7 9a 21 3d 53 f6 60 3e
       0.23315595 0.19969165 0.03945413 0.21968965
000010 3f f6 b5 3d ae ce 1f 3e a2 f1 db 3c eb de 22 3e
       0.08884858 0.15606186 0.026848618 0.15905349
000020 c5 a6 0f 3e 78 03 1c be ba b3 9c 3d d5 84 b6 bd
       0.14028461 -0.15235698 0.076514676 -0.089120544
000030 a4 a5 09 3d 49 20 33 bd ed db 83 3d e1 a5 3b 3d
       0.033605233 -0.04373196 0.06438432 0.04581249
000040 3c a1 88 3e d5 32 86 3e 30 08 85 3e cc ab b0 3e
       0.26685512 0.26210657 0.2598281 0.3450607
000050 3b 69 9f 3d bf 59 85 3d e4 75 cd 3c c4 9e 3f 3e
       0.07783743 0.06511258 0.025080629 0.18712908
000060 1e 0d 11 be dc 07 5b 3a 87 40 42 bc e0 75 a8 bd
       -0.1416516 0.0008355358 -0.011856205 -0.08225608
000070 c8 9a 2c 3b 7f e3 10 be a1 9a b4 3d 22 85 64 be
       0.0026337374 -0.14149283 0.088185556 -0.22316411
000080 3f f3 a1 3c 62 fb 83 bd 4b f5 ea bd ae af 7b 3e
       0.01976931 -0.06444432 -0.11472567 0.24578735
000090 45 08 12 3e 13 23 63 3e 5d 46 8a 3d 6e 54 0e bd
       0.14260967 0.22181349 0.06751702 -0.034748487
0000a0 b5 77 8a 3e 54 9a 12 3e 88 9b 81 3e ef d1 b4 3e
       0.27044454 0.14316684 0.25313973 0.35316417
0000b0 c4 27 b9 3e e6 ae 83 bd 4e 99 e8 3d 9d 4b b4 3c
       0.3616315 -0.064298436 0.113573655 0.022008711
0000c0 09 8c b1 3d 6b 20 49 bd 95 43 24 be 45 19 5d bc
       0.08669288 -0.04910318 -0.16041405 -0.013494794
0000d0 aa a9 a8 3d bd 17 c9 3e c0 0e e0 3e 47 7e 21 3e
       0.08235486 0.39275923 0.43761253 0.15770827
0000e0 73 fb 06 3e 74 e5 21 3d 82 99 da 3d a9 b1 45 be
       0.13181858 0.039525464 0.106738105 -0.19306053
0000f0 19 8a 93 bd d9 ac 6f be f7 47 3c bd 41 a7 ca bd
       -0.072040744 -0.2340578 -0.04596707 -0.098951824
000100 11 b1 ec 3d 1b 0c 21 3d 57 d8 02 3e 28 73 e4 bd
       0.1155721 0.039318185 0.1277784 -0.11154777
000110 b5 26 22 be d6 c3 89 bd e2 98 53 3e 12 3a b5 3d
       -0.15835078 -0.06726806 0.20663789 0.08848967
000120 ce 89 0e 3e 12 7c 4e be bc 3c 99 be 49 50 bb bd
       0.13919756 -0.20164517 -0.2992915 -0.091461726
000130 64 2b 39 bd 4a 6b 9a 3d be 59 ad 3d 76 94 13 3e
       -0.045207396 0.07539995 0.084643826 0.14412102
000140 d8 73 f8 be a3 0d e4 be 05 82 dc bd eb 76 19 be
       -0.48525882 -0.44541654 -0.10766987 -0.1498677
000150 49 ed 13 3e 32 57 47 bc 29 0c e4 3d 18 0c 08 be
       0.14445986 -0.012166785 0.11135132 -0.13285863
000160 20 67 1e be 12 ed e1 bd 9a 6a cd 3d 52 47 c9 bb
       -0.15469027 -0.11031546 0.10030098 -0.0061425352
000170 81 fc 66 3d 34 cd 40 3d f8 de da bd e0 42 df bd
       0.05639315 0.047070697 -0.10687059 -0.10901427
000180 21 50 66 3d cf 6f 02 be 1d 50 1c be f4 28 6d be
       0.05622876 -0.12737964 -0.15264936 -0.23160154
000190 03 88 9b bd e0 e9 c4 3d 83 3d 95 3d 0b a0 c7 bc
       -0.075943016 0.096149206 0.07287123 -0.024368307
0001a0 24 76 07 3d f8 ed 3f 3e a3 b1 fd be 83 90 46 bf
       0.033071652 0.18743122 -0.4954959 -0.7756426
0001b0 65 05 45 bf 20 e9 c8 be 53 0a 0d 3f 20 13 8a 3e
       -0.76961356 -0.3924036 0.5509388 0.26967716
0001c0 99 f9 ae 3d 1b 6e a4 be 1a b5 ab be 95 9b 53 be
       0.08543701 -0.32115254 -0.33536607 -0.20664819
0001d0 31 b4 29 be 8a df b0 be da 04 80 be 27 39 72 be
       -0.16572644 -0.34545547 -0.250037 -0.23654614
0001e0 da b7 ec 3d 5d 1c e6 3c 46 97 f7 3b 59 a1 de bd
       0.115585044 0.028089697 0.007555875 -0.108706184
0001f0 e4 fc d4 bd 32 7c 76 3c 74 dc f2 3b 24 c7 58 bd
       -0.103997976 0.015044259 0.007411534 -0.05292429
000200 3e 25 20 3e 40 ca b2 3c d7 3d 8f 3c 5f d1 01 3c
       0.15639207 0.021824956 0.017485542 0.007923453
000210 e2 f4 04 be da f1 ab 3d 1d ac bf bd 1a 4b 6d be
       -0.1298404 0.08395739 -0.09359 -0.2317318
000220 37 3d 7b be 9b 50 87 be ed 60 00 be b9 b2 93 be
       -0.2453507 -0.26428685 -0.12536974 -0.28847292
000230 89 43 8b 3c ed d2 53 be 3c 7f 01 bb ba 2f 7d be
       0.016999977 -0.2068593 -0.0019759675 -0.24725237
000240 52 28 2a be a7 10 58 3e 22 b0 99 3e e5 ee a9 3e
       -0.16616943 0.21100102 0.3001719 0.33190075
000250 4c 8d 86 3e 40 52 f4 bd 03 29 3d 3d 8a 09 42 be
       0.26279676 -0.119297504 0.04618169 -0.18948951
000260 b0 ef 1a be 9d 1d 45 be 38 17 3d 3e 88 7a 39 be
       -0.15130496 -0.19249578 0.18465889 -0.18113148
000270 ec 3c 52 3d b2 5c 66 3d 22 1c 8a 3d 60 87 d2 bc
       0.05132763 0.056240745 0.06743647 -0.025699317
000280 50 30 06 3e a7 c2 47 3c 23 02 23 bd 70 21 42 be
       0.13104367 0.012192405 -0.03979696 -0.18958068
000290 b7 84 aa 3d b5 a6 1d 3e 2f de 26 3e 9b 4b b5 3e
       0.083260946 0.15395625 0.16295694 0.35409245
0002a0 a2 5e 65 3e 7b e0 81 bc 23 0c 4b 3d b5 ec 8e 3d
       0.22399381 -0.015854111 0.04957212 0.06978742
0002b0 75 3d 12 3e 5c 3d 89 ba 26 c1 25 bd 87 75 ed bd
       0.14281256 -0.0010470557 -0.040467404 -0.11594682
0002c0 d9 70 05 be c0 b2 b5 3c 56 54 87 3c ba 29 b7 be
       -0.13031329 0.022179961 0.016519707 -0.35774022
0002d0 88 a8 f4 bc 74 c3 d1 ba 43 0c eb bd 48 82 62 be
       -0.029865518 -0.0016003684 -0.11476948 -0.22120011
0002e0 bd 61 e9 bd dd 96 93 3d 2f 7f 41 3c 57 38 86 bd
       -0.11395595 0.07206509 0.011810108 -0.06553715
0002f0 86 a6 9d bd 5d 39 83 bd 96 0e cd 3c 0c 28 25 3c
       -0.076977775 -0.064074256 0.02503137 0.010080349
000300 ef 72 1d 3e a3 55 3f 3e fd b9 9d 3d 54 f7 50 bd
       0.15375875 0.18685012 0.0770149 -0.05101712
000310 82 6e 03 bd 88 2f 8e bd 17 64 6b bd 82 48 cb bd
       -0.03208781 -0.069426596 -0.0574685 -0.09925939
000320 1f 83 5f be 51 bc a3 bd 49 41 fd 3d 8a ee 49 3d
       -0.21827362 -0.07994903 0.12365968 0.049299754
000330 cc 06 14 be 2b 70 93 be b9 05 1a bf f1 ac 61 bf
       -0.14455718 -0.28796515 -0.6016498 -0.8815451
000340 1c 7a 60 bf c0 d1 0f bf f7 34 e0 3d 4f f6 91 3d
       -0.87686324 -0.5617943 0.10947602 0.07127058
000350 19 3a 38 be 3a 86 2b be c4 15 e2 bd 23 7b 17 3e
       -0.17990912 -0.16750422 -0.11039308 0.14793067
000360 5c c4 70 bc 30 9c 88 bd 39 5b 17 3d f9 0a f9 bd
       -0.014695253 -0.066704154 0.03695223 -0.12160296
000370 c0 36 1f be c3 2c 6b 3d c2 57 f9 bd 51 9a a0 bd
       -0.15548229 0.057415735 -0.121749416 -0.078419335
000380 c8 cf 32 be 51 77 b5 3c e5 df ed 3d 1b 5c 01 3e
       -0.17462075 0.022151621 0.1161497 0.12632792
000390 9b df 3b bc 75 aa 85 bd 29 50 23 3d 58 bb 9b 3e
       -0.011466886 -0.06526653 0.03987137 0.3041637
0003a0 e3 9f 50 3e 40 88 52 3e c8 7a 05 3e 1a eb 44 3d
       0.20373492 0.20559788 0.13035119 0.048075773
0003b0 3a c0 fd 3c 99 a9 83 bd 68 89 87 bd 50 14 4f bc
       0.03097545 -0.064288326 -0.06618005 -0.01263912
0003c0 89 c0 29 be 2a 0f be be 40 28 d9 be e9 89 0e bf
       -0.16577353 -0.37120944 -0.4241352 -0.55679184
0003d0 ae f1 f0 be e4 f3 20 ba 40 a5 98 bc f2 e4 01 3e
       -0.47059387 -0.0006139858 -0.018633485 0.12684992
0003e0 5b ab b1 3c d6 28 df 3d 72 68 7b 3c ae 11 e6 bd
       0.021688154 0.10896461 0.015344726 -0.11233841
0003f0 4c 89 9b bd 08 7b 2d be aa 3c 06 be e5 30 81 be
       -0.07594547 -0.16941464 -0.13109079 -0.25232616

features.0.bias f4 [32]
000000 7e e0 c3 bd 95 f2 d0 bb 25 c8 72 bc a1 f2 0a be
       -0.09564303 -0.0063765743 -0.014818226 -0.13569118
000010 e2 48 41 be cf 63 ef bd ba cd 49 3d 7a cd 0b 3e
       -0.18875459 -0.11688959 0.04926846 0.13652602
000020 a0 7e 02 be 59 3f 80 bc fd 7f 98 3c 79 9e 55 be
       -0.12743616 -0.015655207 0.018615717 -0.20861234
000030 0a b5 03 3e fe 97 d5 3d a5 76 a3 3d 5e 0b 05 be
       0.1286203 0.10429381 0.07981614 -0.12992617
000040 8b 34 28 3d 51 ab d5 3d ba 7d 3c 3d 61 ca b3 bd
       0.041065734 0.10433067 0.04601834 -0.08778835
000050 af df 0d be e8 7e a0 3d ee d3 f9 3d 4b 9d 77 bd
       -0.1385486 0.078367054 0.121986255 -0.06045274
000060 32 89 53 bd 1f 9d 61 bd 3c 23 fb 3d 63 03 c2 bc
       -0.05164451 -0.055081483 0.1226258 -0.023683256
000070 f3 f9 4c 3d c0 86 f3 3d d8 cf 2f 3d 84 06 c2 3d
       0.050043058 0.11890936 0.042922825 0.09473899

features.1.weight f4 [32]
000000 a7 66 5b 3f c5 73 86 3f 92 4b ae 3f ab 49 72 3f
       0.8570351 1.050408 1.3616812 0.9464366
000010 44 11 5c 3f 39 e3 6a 3f a4 60 88 3f f3 3b 8d 3f
       0.85963845 0.91752964 1.0654492 1.103392
000020 4a 3e 57 3f 2c 5b 6a 3f a4 42 63 3f 96 a9 9a 3f
       0.8407942 0.9154537 0.8877356 1.2083004
000030 73 1b 8f 3f ba 16 a8 3f 34 67 88 3f 02 4a ab 3f
       1.1180252 1.3131936 1.0656495 1.338196
000040 55 fa 9e 3f ff 94 8c 3f 49 5f 37 3f 4e b8 2c 3f
       1.2420145 1.098297 0.7162977 0.67468727
000050 6f dc 92 3f 7e 3b 1a 3f b7 4e 99 3f ac 11 3b 3f
       1.1473521 0.6024703 1.1977147 0.7307384
000060 cb 6a 55 3f 2e a3 3c 3f 18 51 69 3f 63 d0 98 3f
       0.8336608 0.7368649 0.91139364 1.1938595
000070 87 c7 77 3f 97 00 2e 3f c5 9c 9c 3f 0b 84 50 3f
       0.9678883 0.6796965 1.2235342 0.8145148

features.1.bias f4 [32]
000000 c3 6d a6 be 52 bd bf 3d 44 cc 32 3e eb 9f 2e be
       -0.32505617 0.09362282 0.17460734 -0.17053191
000010 a9 c3 0c bd 5f da da bd 4d a4 86 bd a2 1d ae be
       -0.034366284 -0.10686182 -0.06574307 -0.34006983
000020 9b 1b f0 3d d2 1d 9b bd ae 9d 99 3d 95 dd 30 3e
       0.11724015 -0.07574047 0.07500778 0.17272027
000030 ab 2f 97 3d 06 5e f4 3d 2c 76 d7 3c 8d 69 67 3e
       0.07382139 0.11931996 0.026301466 0.22598858
000040 c3 41 2d 3b c2 34 8a 3c 11 e2 b2 bc e4 0e f3 bd
       0.0026436902 0.01687086 -0.021836312 -0.118680745
000050 6f 58 a8 bd ee fc a0 3c fd 17 b5 bd 76 fa 65 be
       -0.08219992 0.019651856 -0.08842466 -0.22458825
000060 44 7d 95 be 75 00 0f bd ca d0 17 bd 95 7b 07 be
       -0.29197133 -0.034912545 -0.03706435 -0.13230737
000070 e4 02 2f 3e 84 53 8c be d5 7d 4a 3d 6c a5 29 3e
       0.17090946 -0.27407467 0.04943641 0.1656701

features.1.running_mean f4 [32]
000000 4f d4 c8 bd f5 6f 1c bd a9 2a 2b bd ae af 27 be
       -0.0980612 -0.038192708 -0.04178873 -0.1637561
000010 2a ce 58 be 1a 31 55 bd 35 ce b4 bc c7 24 1c 3e
       -0.21172395 -0.05204878 -0.022070983 0.15248404
000020 de ee f7 bd d8 98 5d 3d a4 e1 7f 3d 92 cc 5f be
       -0.12106107 0.05410084 0.062471047 -0.21855381
000030 0c a9 ed 3d f0 80 b3 3d 54 14 df 3c d4 de f3 bd
       0.11604509 0.08764827 0.027231373 -0.119077355
000040 0a e8 6b 3c 1b d4 d1 3d bb 30 9f 3c 1a 5a bf bd
       0.014398584 0.10245534 0.019432416 -0.093433574
000050 a1 8b 1c be 9c 43 d9 3d 53 98 b9 3d 35 c3 35 bc
       -0.15287639 0.106085986 0.09062257 -0.011093904
000060 60 18 4a bd d6 64 cf bd ba b0 32 3e 3a cd e3 bd
       -0.049339652 -0.10126655 0.17450228 -0.11123128
000070 82 12 96 bc b8 06 60 3e 12 f5 c9 3c ff 63 0c 3e
       -0.018319372 0.21877563 0.024652991 0.1371002

features.1.running_var f4 [32]
000000 68 d1 a1 40 85 f6 0e 3f 3e b3 e9 40 b5 98 10 3f
       5.0568123 0.5584491 7.30313 0.5648301
000010 7b 3d 2b 41 bb f3 ec 40 c7 ff 3a 40 ff d7 a7 3f
       10.70251 7.4047523 2.9218614 1.3112792
000020 c0 22 63 40 7c bc 72 40 39 17 4c 41 fc 7b 48 3e
       3.548996 3.7927542 12.75567 0.19578546
000030 c8 cb 1a 3f f1 06 8e 3e 86 77 b5 40 f5 49 a7 3f
       0.60467196 0.2773967 5.6708403 1.3069445
000040 4e e6 47 40 a7 0f af 40 3f a0 3d 41 7d a0 f4 40
       3.1234317 5.4706607 11.851623 7.644591
000050 f6 02 81 3f 71 fe 19 40 1e 4d 9a 40 e4 34 ab 40
       1.0079029 2.4061549 4.8219137 5.3502064
000060 27 7e 86 40 a3 34 98 40 2d 61 05 41 fa 84 7e 40
       4.2028995 4.7564254 8.336225 3.9768662
000070 d9 a9 be 40 ae bf ad 40 65 37 ad 40 9a 72 26 41
       5.9582334 5.4296484 5.413012 10.402979

features.4.weight f4 [64, 32, 5]
000000 96 62 0f 3d 38 a0 07 3e d8 12 f4 3a 5f 32 21 3d
       0.03500613 0.13244712 0.0018621339 0.03935468
000010 81 19 fa bc ca cd a1 3d 13 64 bf bd a8 cd e2 bd
       -0.03052974 0.07900579 -0.093452595 -0.11074382
000020 3e f7 51 3d fd f1 7f 3e 96 5c 47 bd e7 b6 39 be
       0.05126118 0.24994655 -0.04867228 -0.18136178
000030 cd 8f f0 bd d2 a9 3d bd bf 47 e3 3d 21 98 9c bd
       -0.11746178 -0.04630453 0.11097669 -0.07646204
000040 9b 83 89 be 61 ed 30 bd 8a 6a 6f be 58 18 6f be
       -0.2685822 -0.043195132 -0.23380485 -0.2334913
000050 37 98 8d be 4d 63 61 be 75 b3 bd bd a2 b9 eb bd
       -0.27655193 -0.22010536 -0.09262744 -0.11510016
000060 36 f8 b4 bc ce 1b 6f 3b c1 fa 4b 3b b7 69 d4 3d
       -0.022091012 0.0036485079 0.0031124803 0.10371726
000070 ba 50 b3 3d 0d 7a 32 bc bc 3d 22 3e 48 77 66 bd
       0.08755632 -0.010893357 0.15843862 -0.0562661
000080 02 df 4d bc b2 fe 8a be 95 1e 5d be ba dd 67 bd
       -0.012565376 -0.27147442 -0.21593697 -0.05660794
000090 9d 1e 31 3d f8 a3 f0 bb 8f 8d 04 be dd 50 24 3e
       0.043242086 -0.0073437653 -0.12944625 0.16046472
0000a0 30 84 a5 3e b1 14 7c 3e 27 94 12 3e 01 be 40 3e
       0.32327414 0.24617268 0.14314328 0.1882248
0000b0 69 9f 21 3e 0e f8 1a be 8c b4 85 bd db 80 23 be
       0.15783466 -0.15133688 -0.06528577 -0.15967123
0000c0 b0 f4 11 be 8e fb 0f be bb 93 a3 bd 2c 0e 90 bd
       -0.14253497 -0.14060804 -0.07987162 -0.07033953
0000d0 f3 aa 17 be 63 8f 4c be da f9 77 be 4c cb 9e bc
       -0.14811306 -0.19976573 -0.24216405 -0.019384049
0000e0 3a a3 3d 3e ee 9b 0d bd 9b bc ba bd 60 48 3b be
       0.18519297 -0.034572534 -0.09118005 -0.18289328
0000f0 60 98 a4 bd d0 e8 45 be dc 2f 2c be e7 72 99 be
       -0.08036876 -0.19327092 -0.16815132 -0.29970476
000100 23 4d c1 be f8 43 02 be 6f 60 94 be ac 6e 10 be
       -0.37754163 -0.1272124 -0.28979823 -0.14104718
000110 3f 11 3d be 08 9c b0 3d 0b 24 2f 3e 9e 11 f1 3d
       -0.1846361 0.086235106 0.17103593 0.11770938
000120 b0 c2 eb 3d 4f a5 f3 3d 9d 2b 8e 3d 3e 72 a6 bd
       0.11511743 0.118967645 0.06941912 -0.08127259
000130 64 69 07 be 63 18 f7 bd ae 07 17 3d 9a e3 a3 3d
       -0.13223797 -0.12065198 0.03687256 0.08002396
000140 a8 05 0b be 81 a5 1e be d1 b3 62 bd b8 d4 8b bc
       -0.13576376 -0.15492822 -0.055347268 -0.017069206
000150 f1 96 c8 3d a9 58 79 3e 83 51 3c 3d 1d 03 44 bc
       0.09794415 0.24350227 0.045976173 -0.011963633
000160 af 0f 15 bd 0a 68 92 3d 9f d1 02 3d 77 99 8f bc
       -0.03639191 0.0714875 0.03193819 -0.017529232
000170 89 66 12 3c 0a d3 bf bc 93 63 c4 3d d9 45 09 be
       0.008935579 -0.023416061 0.09589305 -0.13405551
000180 70 a5 98 bd 76 a1 1e 3d 9d 17 d1 3d c0 38 3e 3e
       -0.0745343 0.0387282 0.10209582 0.18576336
000190 cc da 54 bd 50 5f 19 be 59 d0 71 bd 3d 84 d2 bd
       -0.051966473 -0.14977765 -0.059036586 -0.10279129
0001a0 78 ac 58 3d c5 f1 15 3e 3d 58 b8 3c 88 be c9 bd
       0.052898854 0.14643009 0.022503013 -0.09850794
0001b0 59 87 57 be 63 57 4d be 3c 2d 9c 3e 6c 3c 51 3e
       -0.21047725 -0.20052867 0.3050326 0.20433205
0001c0 35 ea 37 3e 4d 91 a6 3e 54 43 01 3f fc e5 88 bd
       0.17960437 0.3253273 0.5049336 -0.06684491
0001d0 a1 37 8a bd 98 66 b2 bc ee 3c 11 be b9 1a 2f bd
       -0.067488916 -0.021777436 -0.14183399 -0.042750094
0001e0 10 d1 6b be 98 de 56 be 21 34 44 bd 37 ef f8 bd
       -0.2302897 -0.2098335 -0.047901276 -0.121550016
0001f0 a1 6c d9 bd 31 4a 84 bd 17 09 14 bd 3b 5a ae 3d
       -0.106164224 -0.064594634 -0.03614148 0.08513304
000200 8f e4 bf bd 83 91 bc 3d 8d e1 9e be 5f 83 39 be
       -0.09369766 0.09207442 -0.31031457 -0.1811652
000210 cf c8 b0 bd 46 ea 59 3d 71 f9 f0 bc f0 32 f8 3d
       -0.08632051 0.053201936 -0.029415818 0.121190906
000220 0d 30 05 3e eb 3e 7a 3e 52 46 f3 3d 26 2f 45 bd
       0.13006611 0.24438064 0.11878647 -0.048140667
000230 94 79 1f bf 31 66 06 bf 40 2e 49 bd df 22 ab bd
       -0.6229489 -0.5249968 -0.049116373 -0.083562605
000240 19 08 43 3d d6 83 16 bd 7e 8e 36 3d fc 62 30 3d
       0.047615144 -0.036746822 0.044569485 0.04306315
000250 82 a4 c0 3d d8 f6 3d 3e d8 b0 13 3e 9b eb 31 3d
       0.094063774 0.18551195 0.1442293 0.04343758
000260 41 97 80 3d 41 43 5d bb cb bc 31 3e 41 cd 9c bd
       0.062788494 -0.003376201 0.17357175 -0.076563366
000270 d7 5b 0a bd 05 11 6e bc 4e ff b0 bc 3e 92 a8 bd
       -0.03377899 -0.014530425 -0.021606114 -0.082310185
000280 73 23 87 be ab 20 47 be 91 60 84 be e5 c3 a5 be
       -0.26394233 -0.19446056 -0.25854924 -0.32376018
000290 6c 56 df be 1d a4 49 3d ea 46 2d 3e 1c bb 3a 3c
       -0.43620622 0.049228776 0.16921583 0.011397149
0002a0 45 e9 43 3e e3 c6 88 3e 69 04 b2 3d c7 4b df bc
       0.19131954 0.2671424 0.086922474 -0.027257813
0002b0 4e a2 8a be 4f 18 80 be 26 03 59 3d a4 a8 1c be
       -0.27076954 -0.25018546 0.05298152 -0.15298706
0002c0 bf 95 a4 bd b0 d7 e5 bc 3c 8f f4 3c 02 71 e8 bc
       -0.08036374 -0.02805695 0.029853456 -0.028374199
0002d0 6c f9 4a 3e cd 52 e3 bc a5 46 e4 bd ca f9 ba be
       0.1982171 -0.027749443 -0.11146287 -0.365187
0002e0 b4 9a a7 be f3 6a 50 be 5a 35 6f bd 87 2e f2 bd
       -0.32735217 -0.20353298 -0.05840049 -0.11825281
0002f0 86 d9 18 be 4c c8 96 be b5 32 9e 3e 87 8f 74 3e
       -0.14926729 -0.2944969 0.3089806 0.23882876
000300 de 39 f8 3d 64 9f 08 3e 0c 6a 18 3c 19 00 f7 bd
       0.12120412 0.13342053 0.009302627 -0.120605655
000310 9d 62 24 be 82 fd 0e be a6 9c ed bd 1d f2 e6 3d
       -0.16053243 -0.13963893 -0.11602144 0.11276648
000320 4b e0 43 3d e7 7b e3 3d 4e 0a 0d 3d 73 12 44 bc
       0.047821324 0.11107617 0.034433655 -0.011967289
000330 9c c0 07 be af 31 ec 3c b9 f5 04 3e bf 00 2c 3d
       -0.13257068 0.028832285 0.12984361 0.0419929
000340 2e 2d 35 bc 4c 10 95 bd 79 a1 65 3e 15 f6 37 3e
       -0.011058135 -0.07278499 0.22424878 0.17964967
000350 a6 ba 1b 3d 9c ff a9 bd 0d 38 bb be ea 0c 1f 3e
       0.0380198 -0.08300707 -0.365662 0.1553227
000360 72 ba b7 3d 95 a6 12 be 74 f7 71 be 68 c2 26 be
       0.089711085 -0.14321359 -0.23629552 -0.16285098
000370 dd 8a d7 3d fc d6 1b 3e 6d 42 de 3c 40 6b 38 be
       0.10524533 0.15218729 0.027131284 -0.18009663
000380 bc 05 46 be d2 5c 15 be 6f ce a2 be 09 b6 ae be
       -0.19338125 -0.1458619 -0.3179812 -0.34123257
000390 a8 07 63 ba 1f 68 b9 3e 22 a3 8d 3e 9d 3a 88 3d
       -0.00086605037 0.3621225 0.27663523 0.066518046
0003a0 d5 27 4c 3d 8f 05 37 3d 55 1d 85 3d 93 dc 8d bd
       0.049842674 0.044683035 0.06499735 -0.06926837
0003b0 69 d8 fe 3d f7 28 5a 3e c1 95 67 3e 93 62 87 3d
       0.12443621 0.2130469 0.2261572 0.066105984
0003c0 e8 15 2c 3c 35 cd 5b 3e 94 24 83 3e 9f aa 2d 3e
       0.01050327 0.21464999 0.25613844 0.16959618
0003d0 3d ed 18 3e 0c d8 29 be a2 9e d2 bd 66 81 17 be
       0.14934249 -0.16586322 -0.10284163 -0.14795455
0003e0 48 44 81 3c 3f cd 6d 3e 7e d9 0c bd d1 53 ff bd
       0.01577963 0.23222826 -0.034387104 -0.124671586
0003f0 95 78 2d be 03 a6 06 be b8 39 85 be d1 88 73 3b
       -0.1694053 -0.13149266 -0.26020598 0.0037160406

features.4.bias f4 [64]
000000 4b 45 50 3d 0d cc 1e 3d 68 dc b9 bb be 9e e0 bd
       0.050847333 0.038768817 -0.0056720264 -0.10967778
000010 25 07 69 bd d8 d9 bc 3d 66 f5 6f bd 77 d2 be ba
       -0.05689158 0.09221238 -0.05858364 -0.0014558573
000020 a5 01 45 3d ce 7b 31 bc 68 3c 0d 3d 73 0e 15 bd
       0.04809727 -0.01083274 0.034481436 -0.036390733
000030 6f f7 1f 3c e4 85 74 3c 3d f9 8f bc b3 b3 9a bd
       0.009763583 0.0149245 -0.0175749 -0.07553806
000040 93 ea 68 3c 7f 31 0e bd 99 5f 3f 3d d9 fe 82 3c
       0.014216083 -0.034715172 0.04672203 0.015990661
000050 35 61 83 3b 69 be b4 3d 16 a5 d0 3c 26 fd 86 bc
       0.0040093907 0.0882538 0.025469344 -0.016478132
000060 9d e9 69 bd 5c 84 8c bd c6 f0 9a 3c ce ec 25 bc
       -0.057107557 -0.06861183 0.018913638 -0.010127259
000070 97 6d e8 3d 75 5f f1 bd 3f 93 8c bc f7 74 37 3d
       0.113490276 -0.11785785 -0.017160056 0.04478928
000080 6c e6 84 3d e1 7a 12 3d 36 7a ae 3c 02 1f 62 bd
       0.06489262 0.035761718 0.02129851 -0.055205353
000090 13 f3 4b bc cd fa c6 3d 62 39 8c bd d7 ba 73 bd
       -0.01244809 0.09715805 -0.068468824 -0.059504356
0000a0 9e 96 04 bc ec 07 e6 bb eb ae e1 bc 36 85 48 3c
       -0.008092551 -0.0070199873 -0.027549228 0.012238791
0000b0 46 a3 59 3d 04 05 91 bc 93 9f d8 3d 32 80 4d bc
       0.053134225 -0.017702587 0.10577311 -0.012542771
0000c0 79 03 be bc e1 1f 0a bd 9c 4b 4e 3d fc f6 11 bd
       -0.023195015 -0.03372181 0.050365075 -0.035635933
0000d0 9e c4 5f 3d 79 c7 bc 3d 71 bf 40 3d 7c f1 77 3d
       0.054630868 0.09217734 0.047057573 0.06053303
0000e0 93 af c6 3d 19 36 56 bd b8 b3 ba 3b cb 3c 5a bc
       0.09701457 -0.052297685 0.0056976937 -0.013320158
0000f0 0e ab 53 3d 8e 76 03 bd ae 64 9b 3c 36 78 6a 3d
       0.051676802 -0.032095484 0.018968906 0.05724355

features.5.weight f4 [64]
000000 a9 2f 40 3f 45 47 73 3f 58 b6 8c 3f 9e 56 91 3f
       0.75072724 0.95030624 1.0993147 1.1354558
000010 29 3f 9c 3f 3c 0e 91 3f 6c da 80 3f 1d 1e 2f 3f
       1.2206775 1.1332469 1.0066657 0.68405324
000020 d5 01 8d 3f 52 f0 57 3f 25 c6 5a 3f 55 8f 73 3f
       1.1016184 0.84351075 0.85458595 0.9514058
000030 cf f0 92 3f 93 7f 90 3f c9 f5 83 3f 67 c1 50 3f
       1.1479739 1.1288933 1.0309383 0.8154511
000040 20 d5 69 3f fc 7b 71 3f 6d ff 98 3f ea 12 2e 3f
       0.9134083 0.9432981 1.195295 0.6799761
000050 43 30 0c 3f 42 8d 54 3f 03 c0 1a 3f f7 ad 7c 3f
       0.5476114 0.8302804 0.60449237 0.9870295
000060 9b db 70 3f 48 43 16 3f 21 50 75 3f 73 71 7d 3f
       0.9408509 0.58696413 0.9582539 0.99001235
000070 4c 6e 72 3f 81 3c 62 3f 83 a0 89 3f 7b 6c 59 3f
       0.9469955 0.8837357 1.0752109 0.84931153
000080 15 45 77 3f 51 d1 4d 3f a4 3c 79 3f 65 f9 97 3f
       0.96589786 0.80397516 0.97358155 1.1872984
000090 ab 02 98 3f 84 d6 3d 3f 29 2b 9f 3f dd f9 97 3f
       1.1875814 0.7415545 1.2435046 1.1873127
0000a0 7c 77 90 3f 81 0c 69 3f af f5 66 3f 7b 24 2f 3f
       1.1286464 0.91034704 0.90218633 0.6841504
0000b0 d3 7a 91 3f dc a6 34 3f 23 33 6d 3f a6 01 46 3f
       1.1365608 0.7056711 0.92656153 0.77346265
0000c0 92 4f 56 3f a0 83 82 3f a6 ec 8e 3f c0 ad 8d 3f
       0.83715165 1.0196419 1.1165969 1.1068649
0000d0 7a 57 61 3f 58 ed 8c 3f cb 4a 61 3f cb 01 5f 3f
       0.88024104 1.1009932 0.8800475 0.8711211
0000e0 52 ac 43 3f 3a 4c 9a 3f 03 6f 9f 3f 53 53 38 3f
       0.76434815 1.2054513 1.2455753 0.7200214
0000f0 eb 8f 9d 3f 5b 73 54 3f 29 b4 83 3f 10 2f 70 3f
       1.2309545 0.8298852 1.0289356 0.9382181

features.5.bias f4 [64]
000000 17 6f b6 be 23 67 81 be ea 29 a4 be 3b 54 27 be
       -0.3563163 -0.25274 -0.32063228 -0.16340725
000010 5a 7d d2 be 0d 86 8b be bb 74 a9 be 23 c9 c0 be
       -0.4111126 -0.2725071 -0.3309687 -0.37653455
000020 c3 25 a7 be 5f 30 bd be ea 7b df be 02 43 b2 be
       -0.32645997 -0.36950967 -0.43649226 -0.34816748
000030 b1 99 ba be 2e 3b a8 be 61 ed 78 be b9 9b bd be
       -0.36445382 -0.3285765 -0.24309303 -0.3703287
000040 b2 1e 98 be c8 0f bf be 9b 67 e9 bd 3c ec bd be
       -0.2971092 -0.37316728 -0.11396714 -0.37094295
000050 ac 2b 18 bf 7c 68 e2 be 18 26 1d bf 21 aa 81 be
       -0.5944164 -0.4422034 -0.6138625 -0.2532511
000060 0d d6 cd be 0c c6 e3 be ba d1 9c be c9 3e 61 be
       -0.4020237 -0.44487035 -0.3062876 -0.21996607
000070 3a 5a 69 be b0 c9 09 be b9 ac 8a be 1f eb e3 be
       -0.22788325 -0.13455844 -0.27084902 -0.4451532
000080 0a a6 92 be d9 aa 97 be b2 fa 94 be a5 4e 93 be
       -0.28642303 -0.29622534 -0.29097515 -0.2877094
000090 f8 34 a7 be ed 1b a1 be 46 2b a3 be 50 b7 64 be
       -0.326576 -0.31466618 -0.31868953 -0.22335553
0000a0 6f b2 9b be da 22 c6 be 91 d8 af be 63 e3 13 bf
       -0.30409572 -0.38698465 -0.34344915 -0.5776884
0000b0 0e 97 a4 be 1c 4a 99 be d5 e7 67 be 5a ab 84 be
       -0.32146496 -0.29939353 -0.2264703 -0.2591198
0000c0 24 e7 f5 be aa 82 89 be 85 eb b0 be 11 80 82 be
       -0.4802791 -0.268575 -0.34554687 -0.25488332
0000d0 d1 45 91 be 1c 25 5d be f2 1b d1 be b5 02 8f be
       -0.28373578 -0.21596187 -0.40841633 -0.27931753
0000e0 e9 a5 cc be cb d5 6b be 8c 9e c1 be e3 a5 bb be
       -0.3997033 -0.23030774 -0.37816274 -0.3665
0000f0 e6 7e f6 bd 53 87 da bd e6 25 58 be c2 c4 a5 be
       -0.12035923 -0.10670342 -0.21108207 -0.32376677

features.5.running_mean f4 [64]
000000 2e d0 a5 bf d3 bc 3c bf c3 a0 1f c0 9f e7 5f c0
       -1.2954156 -0.7372562 -2.494187 -3.498512
000010 f5 d3 3d c0 d3 0c 12 c0 53 4c c8 3c d4 e8 89 bf
       -2.9660618 -2.2820327 0.024450457 -1.0774179
000020 20 a6 20 c0 4c 43 da bf 64 20 6c bf e4 61 3f c0
       -2.5101395 -1.7051787 -0.92236924 -2.9903498
000030 94 57 1e c0 b1 12 fc bf 07 85 10 c0 73 5e df bf
       -2.4740953 -1.9693204 -2.2581193 -1.7450699
000040 44 b3 e3 bf d5 00 85 bf fd b0 3c c0 d0 b7 28 3e
       -1.7789083 -1.0390879 -2.9483025 0.16476369
000050 01 20 ca 3e e2 0e cb bf d8 b3 ea 3f db 04 63 c0
       0.39477542 -1.5863917 1.8336134 -3.5471714
000060 61 ad 5d bf 25 da fa 3f 3c 8d 5d bf 17 88 80 bf
       -0.8659268 1.9597822 -0.8654363 -1.0041531
000070 0b 01 d0 bf 4e 58 2d c0 f4 cf 51 c0 8c b2 fb bd
       -1.6250318 -2.7085147 -3.2783175 -0.122899145
000080 95 ca 85 bf 45 04 4a bf 3a e0 e0 bf 52 31 09 c0
       -1.0452448 -0.78912765 -1.7568429 -2.1436353
000090 62 bf d8 bf 86 06 f5 bf 5a 7e df bf 12 8f ab bf
       -1.6933405 -1.9142616 -1.7460434 -1.3403037
0000a0 22 e3 28 c0 47 b7 2c c0 bd 0a c7 bf 2c 3e a0 be
       -2.638863 -2.6986864 -1.5550152 -0.31297433
0000b0 ec 46 13 c0 ad ec b1 be 8c 3d ae bf 4a a4 dc bf
       -2.3012037 -0.34750882 -1.3612533 -1.7237637
0000c0 ab 56 02 3f 58 d0 1f c0 fd 3f 04 c0 b4 84 88 bf
       0.50913495 -2.4970913 -2.0664055 -1.0665498
0000d0 c4 94 27 c0 8c da e9 bf 8d ad ae bf 83 00 07 c0
       -2.618455 -1.826982 -1.3646713 -2.1094062
0000e0 7c 35 e5 be db 98 40 c0 0c 57 ee bf 43 84 03 3e
       -0.44767368 -3.0093296 -1.8620315 0.12843423
0000f0 8c e2 2f c0 00 f1 1e bf 5a 07 36 c0 a3 dc c2 bf
       -2.7482023 -0.62086487 -2.8441987 -1.5223583

features.5.running_var f4 [64]
000000 ab 9f 71 40 99 87 88 40 e7 ab b4 40 b1 00 6e 41
       3.7753704 4.2665524 5.645984 14.875169
000010 47 d1 0b 41 c1 7d 09 41 5b 3a 83 40 f1 61 fb 40
       8.738593 8.593202 4.1008735 7.8557057
000020 46 bb 89 41 04 4f a2 40 fa 2a 01 41 69 01 1a 41
       17.216442 5.0721455 8.072992 9.625344
000030 6c d5 f4 40 82 ca a1 40 34 09 f8 40 56 b9 fa 40
       7.6510525 5.05597 7.7511234 7.835124
000040 29 b6 bb 40 84 a6 30 40 04 9c 3e 41 14 10 a9 40
       5.8659863 2.7601633 11.91309 5.2832127
000050 e1 c1 38 40 f3 3c a4 40 bc 7d 9f 40 57 78 b1 41
       2.8868334 5.13244 4.9840984 22.18376
000060 85 99 33 40 44 10 a3 40 f6 ec 03 40 5f da 79 40
       2.806245 5.0957355 2.061338 3.9039533
000070 c9 c9 e5 40 05 3c f6 40 39 76 3e 41 a8 5d 02 40
       7.180882 7.6948266 11.903863 2.0369663
000080 66 0e ac 40 15 c6 7a 40 6a 29 02 41 ee fe dd 40
       5.3767576 3.91834 8.135111 6.9373693
000090 37 ea be 40 dc 9c d0 40 2e ff 51 40 7d d8 82 40
       5.9660907 6.519148 3.2812 4.088927
0000a0 b7 a6 f9 40 1f 89 37 41 ed 93 9a 40 c4 ee 38 40
       7.801601 11.470977 4.8305573 2.889573
0000b0 68 88 bd 40 af a8 3a 40 af d4 5b 40 6d fa a3 40
       5.922901 2.9165456 3.4348562 5.1243196
0000c0 77 87 6f 40 72 de 4d 41 e3 72 ea 40 19 9b 9e 40
       3.742643 12.866808 7.3265243 4.956433
0000d0 93 5a 1a 41 a7 6a a9 40 94 ed 10 41 cc f1 04 41
       9.647113 5.294269 9.058002 8.309032
0000e0 d4 10 0e 40 ac 32 35 41 5d 90 cc 40 b4 54 b1 40
       2.219777 11.324871 6.3926225 5.5415897
0000f0 3c 07 06 41 19 25 8e 40 c8 fb 0e 41 92 af ca 40
       8.376766 4.4420285 8.93647 6.333932

features.8.weight f4 [128, 64, 3]
000000 f8 6c ab 3d 28 a3 13 3e 40 e8 b0 3d 14 0c c5 3d
       0.083703935 0.14417708 0.08638048 0.09621444
000010 ad 83 22 3e 35 c6 55 3d 26 c4 4e be 07 62 a3 be
       0.15870543 0.052190978 -0.20192012 -0.31910726
000020 08 6b da be 97 24 91 3d d2 0c a0 3d b1 4c 32 3e
       -0.42659783 0.07087057 0.07814945 0.17412068
000030 59 4f 6e bc a5 a0 4d bd f5 3d d5 3c 6d b0 12 bd
       -0.014545285 -0.05020203 0.02603052 -0.035812784
000040 02 b2 c1 bd f9 2f 24 3c 75 c4 85 be 87 ea 97 be
       -0.094577804 0.010021203 -0.26126447 -0.29671118
000050 a1 ea 85 be 04 32 11 be 23 b5 5b be ff 76 40 be
       -0.2615557 -0.14179236 -0.21455817 -0.18795393
000060 6e 77 bf bd 9f 84 4e be f2 86 bf bd d0 1b c1 3d
       -0.09348951 -0.20167778 -0.09351911 0.09429133
000070 aa b7 12 3d e8 5f 6c 3d 78 88 11 bd 0a d4 cb bd
       0.035819687 0.05770865 -0.035530537 -0.099525526
000080 c4 94 3e be eb f9 ca bd 6f 4c a6 bd 76 55 65 bd
       -0.18611437 -0.09910949 -0.08120047 -0.055989705
000090 37 43 a4 3d 3e da b1 3d 60 84 49 3d 2b 91 a7 bd
       0.08020633 0.086842045 0.04919851 -0.081819855
0000a0 1f 0a 44 3c e2 ca 00 bc 77 ff ca bd 93 98 4a bd
       0.011965304 -0.007860871 -0.09912007 -0.049461912
0000b0 69 a3 b8 bd c5 10 06 bd 53 cb 01 be 33 f7 99 bd
       -0.09015543 -0.032730836 -0.12675218 -0.07517853
0000c0 eb 18 2e 3e 58 1a 3c 3e 5f ab f7 3d 25 34 9e bd
       0.17001693 0.18369424 0.12093233 -0.077247895
0000d0 c6 54 62 bd 42 91 01 bd b2 29 a5 3d f6 76 1c 3d
       -0.055256628 -0.03163267 0.080645934 0.038199387
0000e0 ad 0d 09 bd 2e 40 10 bc a8 85 a6 bd de 1c b6 bd
       -0.033460308 -0.008804364 -0.08130962 -0.08892225
0000f0 b3 ca 5a be 17 a1 cc bd db 21 00 bd c8 6f 06 be
       -0.21366386 -0.09991663 -0.031282287 -0.13128579
000100 6d e8 1e be a6 46 70 be bc 47 0f 3e 18 a5 17 3e
       -0.15518351 -0.2346445 0.13992208 0.14809072
000110 f1 66 0a 3e 37 1d 0b 3d 46 41 a5 3d 06 d1 93 3d
       0.13515832 0.03396341 0.080690905 0.072176024
000120 57 bb 26 3e bc cd 88 bc 22 6a 1b 3e 1a 66 58 3d
       0.16282402 -0.016699664 0.15177205 0.052831747
000130 7e 48 2f 3d 6f 01 8d bd e6 64 b4 bd ac a0 66 bd
       0.042793743 -0.06885039 -0.08808307 -0.056305572
000140 ff f1 4d 3d 31 0e 97 be 97 8b d3 bd 3a b7 47 be
       0.050279614 -0.29503015 -0.10329359 -0.19503489
000150 90 b0 2b 3e 8b ca 25 3e 84 e6 50 3e e2 fa 3c 3e
       0.16766572 0.16190545 0.20400435 0.18455079
000160 91 ac 3b 3e ed b3 c3 3d 8d 88 cd 3d d3 a4 ce 3d
       0.18327548 0.095558025 0.100358106 0.100900315
000170 da 4b 1d 3e 07 3a 06 3d 0a 81 8d 3c 61 cd 1d be
       0.15360966 0.032770183 0.017273445 -0.15410377
000180 92 12 ac bd 92 72 0a bd df b2 f1 bc 76 25 94 3e
       -0.084019795 -0.03380067 -0.029504238 0.2893483
000190 91 cf 7b 3e 3b 50 91 3e 22 8d f9 bd 5a 2a 0d bd
       0.24590899 0.28381523 -0.12185122 -0.034464218
0001a0 26 c5 a9 bd 65 f0 4b 3e 27 20 2b 3e 02 a5 10 3e
       -0.08289556 0.19915922 0.16711484 0.14125445
0001b0 c6 03 83 bc 37 ed 54 3d 50 17 b3 bd c1 30 57 bc
       -0.01599301 0.05198404 -0.08744681 -0.013134182
0001c0 c5 2c 8b bc b7 76 20 3d 6f e3 9a 3d 11 88 c6 3d
       -0.016989121 0.039175715 0.07562911 0.09693921
0001d0 f8 3e a3 3d e5 24 e0 3e 85 a9 ac 3e 63 27 2e 3e
       0.07970995 0.43778148 0.33723083 0.17007212
0001e0 9d f9 eb bd 94 31 78 bd 00 2d a1 bd 17 78 41 3e
       -0.11522219 -0.060594156 -0.07869911 0.18893467
0001f0 fd ef 1b 3e c1 2d 6f 3e 6c 97 48 3d 8f da 57 bd
       0.15228267 0.23357297 0.048972532 -0.052698668
000200 9b 12 2b be d3 57 2b 3d 91 4c 9d 3d 73 80 34 3c
       -0.16706316 0.041831803 0.076806195 0.011016953
000210 38 f5 54 bd d0 23 54 ba 4f a5 ae bc 67 98 c9 be
       -0.05199167 -0.00080924947 -0.02131906 -0.39374086
000220 c7 ac b8 be fc 98 b8 be fb 3b d7 3c 0d 3c 41 bc
       -0.3606932 -0.36054218 0.026273718 -0.011794102
000230 9e 82 1e be 64 1b 0c be 23 4b 6c bd 9c 92 6d bc
       -0.15479514 -0.13682324 -0.057688843 -0.014500286
000240 ad 00 2e 3e 93 34 83 3d 78 a4 b5 3d 0f 19 96 3e
       0.16992445 0.06406512 0.088692605 0.29315993
000250 8d 40 21 3e 27 d9 ed 3d f4 dc c7 3d 8b cc 0d 3e
       0.1574728 0.11613684 0.0975894 0.13847558
000260 6e 9d 90 3e ab 06 ab bb 89 7f a9 bc fd 58 e2 bd
       0.2824511 -0.0052193007 -0.020690696 -0.110521294
000270 6f cd 02 3e 90 46 33 3e 52 1c 4d 3e ee 98 9b bc
       0.12773679 0.17507386 0.20030335 -0.018993821
000280 f4 6c 1f 3e fa ee 9d 3d a3 3d 85 be d2 25 f4 bd
       0.15568906 0.07711597 -0.26023588 -0.11921276
000290 24 e4 8a bd 87 14 85 3d e2 b2 28 3e 51 3d 80 3e
       -0.067817956 0.06498056 0.16474488 0.2504678
0002a0 f8 74 05 bd de 9b e6 3d 58 fa 62 3d fc 3d 86 3e
       -0.032582253 0.11260198 0.055414528 0.26219165
0002b0 d9 94 cd 3d dc b6 3e 3e fc 20 82 3e 20 a8 36 3e
       0.10038156 0.18624443 0.2541579 0.17837572
0002c0 54 61 1c 3e 9b d5 8d be 5f 9d 85 be 1e 10 82 be
       0.15271503 -0.2770203 -0.26096627 -0.2540292
0002d0 1d a2 ec bc 54 ae 38 bd 6d b5 43 bd f4 b7 12 bd
       -0.028885895 -0.045088127 -0.047780443 -0.035819963
0002e0 6b 94 41 3b 03 12 55 bd 30 a9 d6 3c 0f 39 bc 3c
       0.0029537927 -0.05201913 0.026203722 0.022976426
0002f0 31 e6 fb 3c 78 01 ff 3d 3b 00 c5 3d e0 37 15 bd
       0.030749412 0.12451452 0.096191846 -0.03643024
000300 34 3c f0 bd 15 56 88 3d 6d 43 08 3e 7d 9c 5e be
       -0.11730233 0.06657044 0.13306971 -0.21739383
000310 2f 96 c9 bd 32 77 b1 3c e0 46 30 3d f9 2f 1c bd
       -0.09843098 0.021663282 0.04303634 -0.038131688
000320 53 1b ac be a0 d3 a6 3d 57 12 68 3d ad 31 19 3c
       -0.33614597 0.08145833 0.056658115 0.009350223
000330 71 d5 c7 3b f2 b9 a6 3d 6e d5 80 3e 0b c9 9a bc
       0.0060984422 0.08140935 0.25162834 -0.018894693
000340 57 b3 40 3e d0 32 47 3e d2 88 9c 3d 90 65 81 3d
       0.18818413 0.19452977 0.07643284 0.063182
000350 44 ef a7 3d c0 a4 4d bc b6 26 ad bd 1a ad 2e be
       0.08199933 -0.0125514865 -0.08454649 -0.1705822
000360 e3 e9 aa 3e d4 ad ae 3e 47 8c 7e 3e 22 2c c5 bc
       0.33381566 0.34116995 0.24858199 -0.024068896
000370 fd e0 44 be 88 01 52 be 5e 56 b5 3d d7 83 97 3d
       -0.19226451 -0.20508397 0.08854364 0.07398193
000380 40 22 b6 bb 77 39 df 3d 2a 02 0e 3e 42 d2 4b 3e
       -0.005558282 0.108996324 0.13868013 0.19904426
000390 b1 b1 c8 bd 70 8a 9e bc 7d d9 0e 3d d6 4f 80 be
       -0.09799517 -0.019353122 0.03487538 -0.2506091
0003a0 7d 10 46 be 4a 02 77 bc 04 22 82 bd f7 9b 90 bd
       -0.19342227 -0.015076229 -0.06354144 -0.07060998
0003b0 77 59 80 bd a9 76 51 be f6 c5 92 be 8e db e2 be
       -0.06267064 -0.20455422 -0.28666657 -0.44308132
0003c0 a1 51 d0 bd 2f 1c 46 be af 8f 3e be 5d a4 72 3d
       -0.101718195 -0.19346689 -0.18609498 0.05923878
0003d0 72 eb 94 3e 16 81 c9 3e 9d 5a b9 3d 5d 30 21 bd
       0.2908588 0.39356297 0.09050486 -0.039352763
0003e0 08 82 e3 bd 36 83 b7 bc 71 05 35 3c a5 7d 9d 3c
       -0.11108786 -0.022401433 0.011048661 0.019224951
0003f0 72 6f 17 3e 5d 85 75 3d c1 9a 83 3d 4f 2c 8a 3e
       0.14788607 0.05994164 0.06426001 0.2698693

features.8.bias f4 [128]
000000 c0 00 17 3d 03 f9 f9 bc da 9c 12 3d 11 84 7b 3b
       0.03686595 -0.030514246 0.035794117 0.0038378278
000010 4c 85 4e bb 86 ff e4 3c b6 c0 39 bc 5a 14 50 3d
       -0.0031512557 0.027953874 -0.01133745 0.05080066
000020 92 df bd 3b d5 3f e5 39 67 78 d6 bc 50 f6 f0 bc
       0.005794474 0.00043725842 -0.02618046 -0.029414326
000030 56 e7 cc 3c de e1 54 3d 78 65 45 bc 33 f4 d6 bd
       0.025012653 0.051973216 -0.012048118 -0.10495796
000040 05 21 c3 bc 76 25 0b bc 02 1e 7e 3d cd 5e c1 3b
       -0.023819456 -0.008492818 0.062040336 0.0059011937
000050 80 57 79 3d 2e 63 0a 3b f7 a1 62 3c 16 05 06 3d
       0.060874462 0.0021116245 0.013832561 0.032719694
000060 52 62 64 bd a3 7a 27 bc 06 46 96 3d 27 d8 ed 3c
       -0.055757828 -0.01022211 0.07337575 0.029033734
000070 77 97 ee bd 15 9e 8b 3d 29 da f7 3c 7f 57 92 bd
       -0.116499834 0.06817261 0.030255394 -0.07145595
000080 59 90 40 3d 3c 4c 74 bd 00 86 8c 3b 5c d9 54 bd
       0.04701266 -0.059643015 0.004288435 -0.051965103
000090 d4 60 c7 bd 48 15 cd bc 5d ef a3 3b c3 a6 88 3d
       -0.097352654 -0.025034562 0.0050028996 0.06672432
0000a0 c1 be d4 3c ae e2 ae 3b 3f e0 9f bd a1 4c 08 3d
       0.025969865 0.005337081 -0.078064434 0.033276204
0000b0 1b e8 8b 3d 91 76 1a bc 8e 6c 56 3d d8 67 44 bd
       0.0683138 -0.0094276825 0.05234962 -0.047950596
0000c0 ed c2 61 bd 95 b6 de 3c d1 3e 94 bc ee dc ac 3c
       -0.055117536 0.027186671 -0.01809636 0.021101441
0000d0 f9 69 04 3c b8 d3 99 3c 94 ee 01 3d bb ec 2e 3d
       0.0080819065 0.018777713 0.031721666 0.042706233
0000e0 fc 3c ce 3b 24 82 80 bd dd b4 21 bd fd b2 f3 3c
       0.006293891 -0.06274822 -0.039479125 0.029748434
0000f0 e0 52 d7 bc e3 49 9b 3d 34 ec 0b 3d f0 11 13 3d
       -0.026284635 0.07582452 0.034160808 0.03590578
000100 13 4c 16 3d 1e 07 a5 bc 29 d4 ce bc dd e3 80 3d
       0.036693644 -0.020144995 -0.02524765 0.062934615
000110 c8 48 02 bd 48 ce 75 3d 4a fe c3 bd b7 3a 82 bd
       -0.03180769 0.06001118 -0.09569986 -0.06358855
000120 42 b4 82 3d 05 4e 07 3d cc 7a 8e 3d 02 e8 67 bd
       0.06382038 0.03303339 0.069570154 -0.056617744
000130 a7 af db bc 17 b9 26 3d db 7f 86 3c 5c 6d 4d bd
       -0.026817156 0.04070386 0.016418388 -0.05015312
000140 57 58 7c bd ab f7 63 bc 24 9c db bc 10 a0 9c bd
       -0.061607685 -0.013914029 -0.026807852 -0.07647717
000150 56 31 a9 3a a4 65 ec ba 29 c9 12 3d a5 5b 4a bd
       0.001290838 -0.0018035662 0.035836373 -0.049403805
000160 a2 29 33 bd 2d 50 44 bd 81 2a 4b 3d d2 12 12 bb
       -0.043740876 -0.047928024 0.04960108 -0.002228905
000170 e4 ba 90 3d c7 25 6b 3d 98 dc 7a bc 86 62 4c bc
       0.070668966 0.057409074 -0.015311383 -0.012474662
000180 78 b2 78 bd 75 4c 67 bd 58 c2 87 bc d1 40 08 bd
       -0.060717076 -0.0564694 -0.016572163 -0.03326494
000190 f3 f7 68 3d 11 9b 00 bd a4 43 3b bd 24 af 30 bb
       0.056877088 -0.031397883 -0.045718804 -0.002695986
0001a0 88 91 e0 3c 7c 3f e4 ba ce 3b f3 ba 17 61 8d bc
       0.027413145 -0.0017413939 -0.0018557252 -0.01725821
0001b0 23 09 90 bc 27 c6 96 3c 76 c1 78 bd f4 2b 1f 3d
       -0.017582482 0.018405033 -0.060731374 0.038860276
0001c0 fa 66 f4 3c 8a 61 ad bb 40 c3 e1 3c f3 83 0c 3d
       0.02983426 -0.0052911686 0.027558923 0.034305524
0001d0 7e e4 21 3d ec c0 20 bb 99 de 04 ba 2e 6f 90 bd
       0.039524548 -0.0024529053 -0.000506857 -0.07052456
0001e0 85 de d6 3c 61 d0 20 3b 33 5d 69 3c 3a 82 64 bc
       0.026229152 0.0024538266 0.014243412 -0.013947064
0001f0 d9 44 bf 3c 26 f1 8a 39 87 53 a0 3c 5e 29 4d 3d
       0.023348259 0.0002650108 0.019571079 0.05008828

features.9.weight f4 [128]
000000 ba 2d 7e 3f 32 06 7c 3f 32 f6 b5 3f 35 e8 8d 3f
       0.99288523 0.98446953 1.4215758 1.1086489
000010 46 11 fe 3f dc b5 b3 3f f6 94 73 3f d1 1a 98 3f
       1.9849021 1.4039874 0.9514917 1.1883184
000020 12 fe 7b 3f 6e db 80 3f b2 5b a3 3f bc 59 b3 3f
       0.98434556 1.0066965 1.2762358 1.401176
000030 f1 d0 ac 3f 30 02 cd 3f 4e 02 a8 3f 1d 96 bc 3f
       1.3501264 1.6016293 1.3125703 1.4733311
000040 72 c8 c4 3f 74 1f 85 3f 56 78 6a 3f 8d b6 5e 3f
       1.5373671 1.0400224 0.9158987 0.869973
000050 80 da 92 3f 93 31 82 3f db 10 bc 3f a7 db 82 3f
       1.1472931 1.0171379 1.4692644 1.0223283
000060 42 bb a0 3f c9 c7 87 3f 25 a7 95 3f 53 b1 b1 3f
       1.2557147 1.0607845 1.1691633 1.388224
000070 91 b6 d7 3f 64 ff 8c 3f 3b 61 6d 3f 78 71 90 3f
       1.685259 1.1015439 0.92726487 1.1284628
000080 e4 98 87 3f 97 ae 9a 3f 2e cf d6 3f 9c fa ab 3f
       1.0593534 1.208453 1.6781976 1.3435855
000090 a4 37 a5 3f 75 ab b8 3f 7f db a9 3f 37 fe 63 3f
       1.2907605 1.4427325 1.327011 0.89059776
0000a0 ec b0 b7 3f db 97 c3 3f d2 73 bb 3f 8e a2 e8 3f
       1.4350867 1.5280718 1.464472 1.8174608
0000b0 3e 97 8f 3f ee 28 a0 3f 1c 68 c0 3f 12 db a8 3f
       1.121803 1.2512491 1.5031772 1.3191855
0000c0 d2 ee d0 3f b9 21 bc 3f be 47 55 3f 62 91 94 3f
       1.6322882 1.4697791 0.83312595 1.1606867
0000d0 02 1e 98 3f 50 ed a0 3f a9 4b b4 3f 68 8f 7d 3f
       1.1884158 1.2572422 1.408559 0.99046946
0000e0 e5 94 9c 3f c6 82 aa 3f 28 64 91 3f 03 d2 8c 3f
       1.2232939 1.3321159 1.135869 1.100159
0000f0 cd cd b8 3f 07 80 a9 3f 5b 7f 73 3f 4a 56 d1 3f
       1.4437805 1.3242196 0.95116204 1.6354458
000100 6d 0e a8 3f f6 2a 95 3f 07 f0 86 3f e6 fb ae 3f
       1.3129402 1.1653736 1.0542 1.3670623
000110 86 db c6 3f 1e d8 89 3f 3a bd cd 3f bd 93 d7 3f
       1.5535743 1.0769079 1.6073372 1.6841961
000120 e7 90 af 3f 35 b9 81 3f 91 a1 aa 3f 54 65 97 3f
       1.3716096 1.0134646 1.3330556 1.1827798
000130 e8 48 7a 3f ec 8d 83 3f 09 3e b2 3f 3e 42 b3 3f
       0.97767496 1.0277686 1.3925182 1.400459
000140 73 30 af 3f cf f3 79 3f 4a 01 88 3f cf e6 96 3f
       1.368666 0.9763765 1.0625393 1.1789187
000150 ba b8 89 3f c8 20 78 3f ad ce 9a 3f 34 56 97 3f
       1.0759499 0.9692502 1.2094322 1.1823182
000160 fc ae 8e 3f f4 b5 a2 3f 71 7d a4 3f d9 de a4 3f
       1.1147151 1.2711778 1.2850782 1.2880508
000170 07 64 87 3f 75 3c 8b 3f 32 d3 9f 3f 9d e0 82 3f
       1.0577401 1.0877825 1.2486327 1.0224797
000180 0f 82 75 3f 9e a5 b6 3f 84 83 a4 3f 47 c0 ab 3f
       0.9590158 1.4269292 1.2852635 1.3418053
000190 66 a9 98 3f 71 d2 7a 3f 1f ee 80 3f 41 c7 7f 3f
       1.1926696 0.9797736 1.0072669 0.9991341
0001a0 45 7a ac 3f b3 d2 a2 3f f9 39 c5 3f 11 41 9b 3f
       1.3474814 1.272055 1.5408317 1.2129232
0001b0 59 84 93 3f 7f a9 a3 3f f9 9f 72 3f e7 4a cb 3f
       1.1524764 1.2786101 0.9477535 1.5882233
0001c0 0c b8 c0 3f ef d6 5d 3f 10 bf 54 3f 7d a0 99 3f
       1.5056167 0.8665609 0.8310404 1.2002102
0001d0 80 43 9d 3f 00 f8 88 3f 75 49 8f 3f 92 fc b2 3f
       1.2286224 1.0700684 1.1194292 1.3983328
0001e0 6b c1 54 3f 44 13 c3 3f da d5 3e 3f e2 3c be 3f
       0.8310763 1.5240254 0.7454506 1.486233
0001f0 fe b8 77 3f 01 5a ac 3f 7d 88 7f 3f 52 c7 97 3f
       0.9676665 1.3464967 0.9981764 1.1857703

features.9.bias f4 [128]
000000 5a 8c 98 bd 23 99 29 be c3 63 b9 be 23 21 10 be
       -0.07448645 -0.16562323 -0.36208925 -0.1407514
000010 79 bc 65 be c3 a7 cc be 54 00 d6 bd 1e 7f 26 be
       -0.22435178 -0.39971742 -0.10449281 -0.16259429
000020 32 39 f2 bd 27 04 13 be d9 0e 9b be 39 02 ca be
       -0.118273154 -0.14357053 -0.30284765 -0.3945482
000030 c1 fd 9a be 83 ae 52 bf 76 6d 92 be 5c 83 0a bf
       -0.30271724 -0.82297534 -0.28599137 -0.5410669
000040 c4 25 2f bf 8b bd 17 be 48 de 62 be b3 c3 8e be
       -0.68417 -0.14818399 -0.22155106 -0.27883682
000050 24 02 87 be 1b 5e 34 be fc 49 fc be 09 4a 20 be
       -0.2636882 -0.17614023 -0.49275196 -0.15653242
000060 c5 31 aa be c4 6f 17 be 39 ef 81 be 10 4d f3 be
       -0.33241096 -0.14788729 -0.25377825 -0.47519732
000070 70 28 a3 be 5d 8a 6c be 21 da 91 be e2 fb 78 be
       -0.3186679 -0.23099656 -0.28486732 -0.24314836
000080 45 b1 4f be 37 1b a6 be 9c 88 21 bf 4b fb c7 be
       -0.20282467 -0.32442638 -0.63099074 -0.3905891
000090 c5 59 ae be 87 d3 9d be b3 00 a4 be 37 1a 02 be
       -0.34052864 -0.30825445 -0.32031783 -0.12705313
0000a0 00 ce 0b bf 7e 3b 1b bf 6b c8 0c bf 3c 74 9c be
       -0.54611206 -0.6063765 -0.54993314 -0.3055743
0000b0 60 ff 3c be b3 30 9e be 97 00 c3 be 03 8a bc be
       -0.18456793 -0.3089653 -0.38086388 -0.36824045
0000c0 54 44 2d bf 19 f8 12 bf 90 f5 90 be f3 a7 c9 be
       -0.67682385 -0.57409817 -0.2831235 -0.39385948
0000d0 d6 cd b2 be a0 85 87 be e6 c3 b0 be 18 f8 8b be
       -0.34922665 -0.26469135 -0.3452446 -0.27337718
0000e0 96 60 3c be d2 07 91 be 2a a8 00 bf b9 ed a8 be
       -0.1839622 -0.2832628 -0.502566 -0.32993868
0000f0 73 e3 de be d3 07 c7 be 36 e1 24 be 52 e9 21 bf
       -0.43532905 -0.38873157 -0.16101536 -0.63246644
000100 81 15 8e be de 3c 93 be 7d b5 da be 8b e2 02 bf
       -0.2775078 -0.28757375 -0.4271659 -0.5112693
000110 9d 88 d0 be cc 0e 47 be 2f fc 45 be 2f dd 29 bf
       -0.40729228 -0.19439238 -0.19334482 -0.66353124
000120 a6 2e ce be a6 fb 78 be 0f 11 e7 be 09 41 80 be
       -0.40269965 -0.24314746 -0.45130202 -0.25049618
000130 74 63 f2 bd 47 3f 68 be 8c 68 fc be 48 6d 08 bf
       -0.118353754 -0.22680388 -0.49298513 -0.5329175
000140 78 87 6e be b2 c0 94 be 9f 54 d9 be cd b8 b4 be
       -0.23293865 -0.29053265 -0.42447373 -0.35297242
000150 a2 08 6f be b5 37 28 be 58 d4 97 bd d6 0f af bd
       -0.23343137 -0.164275 -0.07413548 -0.08547942
000160 3e f9 2d be a8 1f 32 be 68 7b f8 be 27 23 b6 be
       -0.1698961 -0.17394888 -0.48531651 -0.35573694
000170 46 60 1d be 25 96 2d be 63 b0 cc be 87 50 3e bd
       -0.15368757 -0.16951807 -0.39978322 -0.046463516
000180 1c 2c eb bd d5 21 ba be dc 17 e7 be 20 44 96 be
       -0.114830226 -0.36353937 -0.4513539 -0.2934885
000190 27 95 c8 be 7a ac c6 be 53 82 84 be 02 21 2e bd
       -0.39176294 -0.38803464 -0.2588068 -0.042511947
0001a0 a7 5c 0f bf 13 12 91 be 1d 4c 02 bf 17 a9 da be
       -0.5600075 -0.28334102 -0.5089739 -0.4270713
0001b0 2c 8d 56 be 5e f5 9c be 86 20 cf bd a6 3e 0a bf
       -0.2095229 -0.3065595 -0.10113625 -0.54001844
0001c0 56 c4 11 bf 2e d7 00 be 28 51 c9 be 05 2a ca be
       -0.5694021 -0.12582085 -0.3931973 -0.39485183
0001d0 ff 2a 98 be 7d 0a 2a be d1 3c 9c be f3 0a 96 be
       -0.29720303 -0.16605563 -0.3051515 -0.2930523
0001e0 5b 8e 6e be 1e 04 0c bf fe 70 a8 be 5a 80 38 be
       -0.23296492 -0.5469378 -0.32898706 -0.18017712
0001f0 af 18 86 be 1c 3b 12 bf 4b 34 26 be c9 cf a5 be
       -0.26190707 -0.57121444 -0.16230886 -0.3238509

features.9.running_mean f4 [128]
000000 8b bc e3 3e fb f0 62 bf 7f 26 72 be b4 1c 44 3f
       0.44479784 -0.88648957 -0.23647498 0.766063
000010 0e 73 a3 bd e4 48 0d 3e 5b 62 11 3f 6f 2a 29 bf
       -0.07980929 0.13797337 0.56790704 -0.66080374
000020 67 92 7c 3e ee 2e e3 bd d5 43 a9 3e c7 28 a1 be
       0.24665223 -0.110929355 0.33059564 -0.31476423
000030 17 d7 a1 3d 25 26 fe 3e ab 9f 89 be fe 4e 9b be
       0.07902353 0.49638477 -0.2687963 -0.30333704
000040 a0 f2 c9 bd 24 2e 80 bf 17 4c 29 be 2e ba 33 bf
       -0.0986073 -1.0014081 -0.16532932 -0.7020596
000050 e6 70 bc be 19 7d 1f be e3 8f 28 be ed 62 d1 be
       -0.36804885 -0.15575065 -0.16461138 -0.40895787
000060 83 98 a9 be cf 05 3d bd 43 64 c6 3e 6c f3 a4 be
       -0.3312417 -0.046148118 0.3874837 -0.32216966
000070 06 77 aa bd 15 57 1c bf dc 44 9a bf 23 5d 5e 3d
       -0.08323483 -0.61070377 -1.2052264 0.05428804
000080 f3 d9 4c bf 2f 25 12 bf 90 92 2a be 0b 5b 0e 3e
       -0.80020064 -0.5708799 -0.16657472 0.13901918
000090 93 ad af be a6 dc 59 be 68 e6 9c be 1e ba 22 3f
       -0.34312114 -0.21275577 -0.30644536 0.6356524
0000a0 04 52 12 3c 08 b6 30 be 8d dc af bd ce 25 1f bd
       0.008930687 -0.1725694 -0.085869886 -0.038854413
0000b0 d0 26 92 be 53 59 39 3e bb f5 d3 3d e1 05 73 be
       -0.28545237 0.1810048 0.10349604 -0.23732711
0000c0 c2 3a 9b bd 61 1a ba be de 87 9e bf 95 52 35 be
       -0.075795665 -0.3634825 -1.2385213 -0.17707284
0000d0 01 b6 48 bf 1b 5e b3 3e 9f ee ee be 81 ee 1d bf
       -0.78402716 0.35032734 -0.46666428 -0.61692053
0000e0 74 5d 25 3f 3c c4 2a bf 50 09 c8 be bd a2 83 be
       0.64595723 -0.6670568 -0.39069605 -0.25710097
0000f0 67 5e 38 be ff 06 9e bd e8 d8 ab bf 04 48 02 3e
       -0.18004762 -0.07716178 -1.342557 0.12722784
000100 72 da 88 3e 5a 67 50 bd 71 44 61 bf 7a 89 8a be
       0.2672916 -0.050879814 -0.8799506 -0.2705801
000110 bf a6 a0 bc 2d c7 7e be 9c a1 ea bd d6 77 78 be
       -0.01961076 -0.24880667 -0.11456606 -0.24264464
000120 16 a6 1a 3e 3e 7d 25 3f db e5 c4 3e 34 cb 86 bf
       0.1510242 0.6464423 0.38456616 -1.0530763
000130 5c 84 c7 3e 26 be 2d bc 96 81 0a 3f 66 a1 a7 3e
       0.3896817 -0.010604417 0.5410398 0.32740325
000140 9e 33 31 bf 67 2a 42 bf 47 e4 d0 be 00 cc 54 be
       -0.69219387 -0.7584595 -0.40799162 -0.20780945
000150 22 4c bf bf 79 60 2b be 97 45 a6 be 11 d1 21 be
       -1.4945109 -0.1673602 -0.32474968 -0.15802409
000160 e8 60 a8 3e 84 c2 de bd 11 27 cd be c7 0c 9f bd
       0.32886434 -0.10876945 -0.40068868 -0.07766109
000170 1e e7 82 bd 7c 18 54 3e 8c 0f e6 3e fc 92 92 3f
       -0.06391738 0.20712465 0.44933736 1.1451106
000180 dd 6f de be 8c 2e e0 bd ef 7d 4f bf 91 d2 f8 bc
       -0.4344472 -0.10946378 -0.81051534 -0.030373843
000190 5e a0 aa bf 28 f2 8d be 1d 91 02 bf 29 35 95 3f
       -1.333019 -0.27723813 -0.51002675 1.1656848
0001a0 48 4e 88 bf 71 26 b3 bd 56 cc f4 bd dc 66 db be
       -1.064889 -0.087475665 -0.119530365 -0.42851913
0001b0 e3 50 5d bf b5 30 bb be ef ab 57 3f ab 1a bd bc
       -0.8645155 -0.36560598 0.84246725 -0.023084005
0001c0 42 a0 c7 be 28 cb 67 bf 03 33 5d be 1e 79 b7 bd
       -0.38989455 -0.90544367 -0.2160149 -0.08958648
0001d0 fc ae 23 bf e9 38 90 bf 8e 01 a0 bf 6c 85 ee 3e
       -0.6393888 -1.1267368 -1.2500474 0.46586168
0001e0 ee 55 2a bd 87 9e 3d be 73 95 b8 be a2 a1 71 3d
       -0.041585855 -0.18517505 -0.3605152 0.058992036
0001f0 34 24 0a bf 65 8e 3a bd c2 1c 18 be 35 6f 81 bf
       -0.5396149 -0.045545954 -0.1485472 -1.0112063
